…
      "/opt/conda/lib/python3.10/site-packages/torchvision/models/_utils.py:223: UserWarning: Arguments other than a weight enum or `None` for 'weights' are deprecated since 0.13 and may be removed in the future. The current behavior is equivalent to passing `weights=MobileNet_V3_Small_Weights.IMAGENET1K_V1`. You can also use `weights=MobileNet_V3_Small_Weights.DEFAULT` to get the most up-to-date weights.\n",
      "  warnings.warn(msg)\n",
      "Downloading: \"https://download.pytorch.org/models/mobilenet_v3_small-047dcff4.pth\" to /home/student/.cache/torch/hub/checkpoints/mobilenet_v3_small-047dcff4.pth\n",
      "100%|██████████| 9.83M/9.83M [00:00<00:00, 96.2MB/s]"
     ]
    },
    {
     "name": "stdout",
     "output_type": "stream",
     "text": [
      "MobileNetV3(\n",
      "  (features): Sequential(\n",
      "    (0): Conv2dNormActivation(\n",
      "      (0): Conv2d(3, 16, kernel_size=(3, 3), stride=(2, 2), padding=(1, 1), bias=False)\n",
      "      (1): BatchNorm2d(16, eps=0.001, momentum=0.01, affine=True, track_running_stats=True)\n",
      "      (2): Hardswish()\n",
      "    )\n",
      "    (1): InvertedResidual(\n",
      "      (block): Sequential(\n",
      "        (0): Conv2dNormActivation(\n",
      "          (0): Conv2d(16, 16, kernel_size=(3, 3), stride=(2, 2), padding=(1, 1), groups=16, bias=False)\n",
      "          (1): BatchNorm2d(16, eps=0.001, momentum=0.01, affine=True, track_running_stats=True)\n",
      "          (2): ReLU(inplace=True)\n",
      "        )\n",
      "        (1): SqueezeExcitation(\n",
      "          (avgpool): AdaptiveAvgPool2d(output_size=1)\n",
      "          (fc1): Conv2d(16, 8, kernel_size=(1, 1), stride=(1, 1))\n",
      "          (fc2): Conv2d(8, 16, kernel_size=(1, 1), stride=(1, 1))\n",
      "          (activation): ReLU()\n",
      "          (scale_activation): Hardsigmoid()\n",
      "        )\n",
      "        (2): Conv2dNormActivation(\n",
      "          (0): Conv2d(16, 16, kernel_size=(1, 1), stride=(1, 1), bias=False)\n",
      "          (1): BatchNorm2d(16, eps=0.001, momentum=0.01, affine=True, track_running_stats=True)\n",
      "        )\n",
      "      )\n",
      "    )\n",
      "    (2): InvertedResidual(\n",
      "      (block): Sequential(\n",
      "        (0): Conv2dNormActivation(\n",
      "          (0): Conv2d(16, 72, kernel_size=(1, 1), stride=(1, 1), bias=False)\n",
      "          (1): BatchNorm2d(72, eps=0.001, momentum=0.01, affine=True, track_running_stats=True)\n",
      "          (2): ReLU(inplace=True)\n",
      "        )\n",
      "        (1): Conv2dNormActivation(\n",
      "          (0): Conv2d(72, 72, kernel_size=(3, 3), stride=(2, 2), padding=(1, 1), groups=72, bias=False)\n",
      "          (1): BatchNorm2d(72, eps=0.001, momentum=0.01, affine=True, track_running_stats=True)\n",
      "          (2): ReLU(inplace=True)\n",
      "        )\n",
      "        (2): Conv2dNormActivation(\n",
      "          (0): Conv2d(72, 24, kernel_size=(1, 1), stride=(1, 1), bias=False)\n",
      "          (1): BatchNorm2d(24, eps=0.001, momentum=0.01, affine=True, track_running_stats=True)\n",
      "        )\n",
      "      )\n",
      "    )\n",
      "    (3): InvertedResidual(\n",
      "      (block): Sequential(\n",
      "        (0): Conv2dNormActivation(\n",
      "          (0): Conv2d(24, 88, kernel_size=(1, 1), stride=(1, 1), bias=False)\n",
      "          (1): BatchNorm2d(88, eps=0.001, momentum=0.01, affine=True, track_running_stats=True)\n",
      "          (2): ReLU(inplace=True)\n",
      "        )\n",
      "        (1): Conv2dNormActivation(\n",
      "          (0): Conv2d(88, 88, kernel_size=(3, 3), stride=(1, 1), padding=(1, 1), groups=88, bias=False)\n",
      "          (1): BatchNorm2d(88, eps=0.001, momentum=0.01, affine=True, track_running_stats=True)\n",
      "          (2): ReLU(inplace=True)\n",
      "        )\n",
      "        (2): Conv2dNormActivation(\n",
      "          (0): Conv2d(88, 24, kernel_size=(1, 1), stride=(1, 1), bias=False)\n",
      "          (1): BatchNorm2d(24, eps=0.001, momentum=0.01, affine=True, track_running_stats=True)\n",
      "        )\n",
      "      )\n",
      "    )\n",
      "    (4): InvertedResidual(\n",
      "      (block): Sequential(\n",
      "        (0): Conv2dNormActivation(\n",
      "          (0): Conv2d(24, 96, kernel_size=(1, 1), stride=(1, 1), bias=False)\n",
      "          (1): BatchNorm2d(96, eps=0.001, momentum=0.01, affine=True, track_running_stats=True)\n",
      "          (2): Hardswish()\n",
      "        )\n",
      "        (1): Conv2dNormActivation(\n",
      "          (0): Conv2d(96, 96, kernel_size=(5, 5), stride=(2, 2), padding=(2, 2), groups=96, bias=False)\n",
      "          (1): BatchNorm2d(96, eps=0.001, momentum=0.01, affine=True, track_running_stats=True)\n",
      "          (2): Hardswish()\n",
      "        )\n",
      "        (2): SqueezeExcitation(\n",
      "          (avgpool): AdaptiveAvgPool2d(output_size=1)\n",
      "          (fc1): Conv2d(96, 24, kernel_size=(1, 1), stride=(1, 1))\n",
      "          (fc2): Conv2d(24, 96, kernel_size=(1, 1), stride=(1, 1))\n",
      "          (activation): ReLU()\n",
      "          (scale_activation): Hardsigmoid()\n",
      "        )\n",
      "        (3): Conv2dNormActivation(\n",
      "          (0): Conv2d(96, 40, kernel_size=(1, 1), stride=(1, 1), bias=False)\n",
      "          (1): BatchNorm2d(40, eps=0.001, momentum=0.01, affine=True, track_running_stats=True)\n",
      "        )\n",
      "      )\n",
      "    )\n",
      "    (5): InvertedResidual(\n",
      "      (block): Sequential(\n",
      "        (0): Conv2dNormActivation(\n",
      "          (0): Conv2d(40, 240, kernel_size=(1, 1), stride=(1, 1), bias=False)\n",
      "          (1): BatchNorm2d(240, eps=0.001, momentum=0.01, affine=True, track_running_stats=True)\n",
      "          (2): Hardswish()\n",
      "        )\n",
      "        (1): Conv2dNormActivation(\n",
      "          (0): Conv2d(240, 240, kernel_size=(5, 5), stride=(1, 1), padding=(2, 2), groups=240, bias=False)\n",
      "          (1): BatchNorm2d(240, eps=0.001, momentum=0.01, affine=True, track_running_stats=True)\n",
      "          (2): Hardswish()\n",
      "        )\n",
      "        (2): SqueezeExcitation(\n",
      "          (avgpool): AdaptiveAvgPool2d(output_size=1)\n",
      "          (fc1): Conv2d(240, 64, kernel_size=(1, 1), stride=(1, 1))\n",
      "          (fc2): Conv2d(64, 240, kernel_size=(1, 1), stride=(1, 1))\n",
      "          (activation): ReLU()\n",
      "          (scale_activation): Hardsigmoid()\n",
      "        )\n",
      "        (3): Conv2dNormActivation(\n",
      "          (0): Conv2d(240, 40, kernel_size=(1, 1), stride=(1, 1), bias=False)\n",
      "          (1): BatchNorm2d(40, eps=0.001, momentum=0.01, affine=True, track_running_stats=True)\n",
      "        )\n",
      "      )\n",
      "    )\n",
      "    (6): InvertedResidual(\n",
      "      (block): Sequential(\n",
      "        (0): Conv2dNormActivation(\n",
      "          (0): Conv2d(40, 240, kernel_size=(1, 1), stride=(1, 1), bias=False)\n",
      "          (1): BatchNorm2d(240, eps=0.001, momentum=0.01, affine=True, track_running_stats=True)\n",
      "          (2): Hardswish()\n",
      "        )\n",
      "        (1): Conv2dNormActivation(\n",
      "          (0): Conv2d(240, 240, kernel_size=(5, 5), stride=(1, 1), padding=(2, 2), groups=240, bias=False)\n",
      "          (1): BatchNorm2d(240, eps=0.001, momentum=0.01, affine=True, track_running_stats=True)\n",
      "          (2): Hardswish()\n",
      "        )\n",
      "        (2): SqueezeExcitation(\n",
      "          (avgpool): AdaptiveAvgPool2d(output_size=1)\n",
      "          (fc1): Conv2d(240, 64, kernel_size=(1, 1), stride=(1, 1))\n",
      "          (fc2): Conv2d(64, 240, kernel_size=(1, 1), stride=(1, 1))\n",
      "          (activation): ReLU()\n",
      "          (scale_activation): Hardsigmoid()\n",
      "        )\n",
      "        (3): Conv2dNormActivation(\n",
      "          (0): Conv2d(240, 40, kernel_size=(1, 1), stride=(1, 1), bias=False)\n",
      "          (1): BatchNorm2d(40, eps=0.001, momentum=0.01, affine=True, track_running_stats=True)\n",
      "        )\n",
      "      )\n",
      "    )\n",
      "    (7): InvertedResidual(\n",
      "      (block): Sequential(\n",
      "        (0): Conv2dNormActivation(\n",
      "          (0): Conv2d(40, 120, kernel_size=(1, 1), stride=(1, 1), bias=False)\n",
      "          (1): BatchNorm2d(120, eps=0.001, momentum=0.01, affine=True, track_running_stats=True)\n",
      "          (2): Hardswish()\n",
      "        )\n",
      "        (1): Conv2dNormActivation(\n",
      "          (0): Conv2d(120, 120, kernel_size=(5, 5), stride=(1, 1), padding=(2, 2), groups=120, bias=False)\n",
      "          (1): BatchNorm2d(120, eps=0.001, momentum=0.01, affine=True, track_running_stats=True)\n",
      "          (2): Hardswish()\n",
      "        )\n",
      "        (2): SqueezeExcitation(\n",
      "          (avgpool): AdaptiveAvgPool2d(output_size=1)\n",
      "          (fc1): Conv2d(120, 32, kernel_size=(1, 1), stride=(1, 1))\n",
      "          (fc2): Conv2d(32, 120, kernel_size=(1, 1), stride=(1, 1))\n",
      "          (activation): ReLU()\n",
      "          (scale_activation): Hardsigmoid()\n",
      "        )\n",
      "        (3): Conv2dNormActivation(\n",
      "          (0): Conv2d(120, 48, kernel_size=(1, 1), stride=(1, 1), bias=False)\n",
      "          (1): BatchNorm2d(48, eps=0.001, momentum=0.01, affine=True, track_running_stats=True)\n",
      "        )\n",
      "      )\n",
      "    )\n",
      "    (8): InvertedResidual(\n",
      "      (block): Sequential(\n",
      "        (0): Conv2dNormActivation(\n",
      "          (0): Conv2d(48, 144, kernel_size=(1, 1), stride=(1, 1), bias=False)\n",
      "          (1): BatchNorm2d(144, eps=0.001, momentum=0.01, affine=True, track_running_stats=True)\n",
      "          (2): Hardswish()\n",
      "        )\n",
      "        (1): Conv2dNormActivation(\n",
      "          (0): Conv2d(144, 144, kernel_size=(5, 5), stride=(1, 1), padding=(2, 2), groups=144, bias=False)\n",
      "          (1): BatchNorm2d(144, eps=0.001, momentum=0.01, affine=True, track_running_stats=True)\n",
      "          (2): Hardswish()\n",
      "        )\n",
      "        (2): SqueezeExcitation(\n",
      "          (avgpool): AdaptiveAvgPool2d(output_size=1)\n",
      "          (fc1): Conv2d(144, 40, kernel_size=(1, 1), stride=(1, 1))\n",
      "          (fc2): Conv2d(40, 144, kernel_size=(1, 1), stride=(1, 1))\n",
      "          (activation): ReLU()\n",
      "          (scale_activation): Hardsigmoid()\n",
      "        )\n",
      "        (3): Conv2dNormActivation(\n",
      "          (0): Conv2d(144, 48, kernel_size=(1, 1), stride=(1, 1), bias=False)\n",
      "          (1): BatchNorm2d(48, eps=0.001, momentum=0.01, affine=True, track_running_stats=True)\n",
      "        )\n",
      "      )\n",
      "    )\n",
      "    (9): InvertedResidual(\n",
      "      (block): Sequential(\n",
      "        (0): Conv2dNormActivation(\n",
      "          (0): Conv2d(48, 288, kernel_size=(1, 1), stride=(1, 1), bias=False)\n",
      "          (1): BatchNorm2d(288, eps=0.001, momentum=0.01, affine=True, track_running_stats=True)\n",
      "          (2): Hardswish()\n",
      "        )\n",
      "        (1): Conv2dNormActivation(\n",
      "          (0): Conv2d(288, 288, kernel_size=(5, 5), stride=(2, 2), padding=(2, 2), groups=288, bias=False)\n",
      "          (1): BatchNorm2d(288, eps=0.001, momentum=0.01, affine=True, track_running_stats=True)\n",
      "          (2): Hardswish()\n",
      "        )\n",
      "        (2): SqueezeExcitation(\n",
      "          (avgpool): AdaptiveAvgPool2d(output_size=1)\n",
      "          (fc1): Conv2d(288, 72, kernel_size=(1, 1), stride=(1, 1))\n",
      "          (fc2): Conv2d(72, 288, kernel_size=(1, 1), stride=(1, 1))\n",
      "          (activation): ReLU()\n",
      "          (scale_activation): Hardsigmoid()\n",
      "        )\n",
      "        (3): Conv2dNormActivation(\n",
      "          (0): Conv2d(288, 96, kernel_size=(1, 1), stride=(1, 1), bias=False)\n",
      "          (1): BatchNorm2d(96, eps=0.001, momentum=0.01, affine=True, track_running_stats=True)\n",
      "        )\n",
      "      )\n",
      "    )\n",
      "    (10): InvertedResidual(\n",
      "      (block): Sequential(\n",
      "        (0): Conv2dNormActivation(\n",
      "          (0): Conv2d(96, 576, kernel_size=(1, 1), stride=(1, 1), bias=False)\n",
      "          (1): BatchNorm2d(576, eps=0.001, momentum=0.01, affine=True, track_running_stats=True)\n",
      "          (2): Hardswish()\n",
      "        )\n",
      "        (1): Conv2dNormActivation(\n",
      "          (0): Conv2d(576, 576, kernel_size=(5, 5), stride=(1, 1), padding=(2, 2), groups=576, bias=False)\n",
      "          (1): BatchNorm2d(576, eps=0.001, momentum=0.01, affine=True, track_running_stats=True)\n",
      "          (2): Hardswish()\n",
      "        )\n",
      "        (2): SqueezeExcitation(\n",
      "          (avgpool): AdaptiveAvgPool2d(output_size=1)\n",
      "          (fc1): Conv2d(576, 144, kernel_size=(1, 1), stride=(1, 1))\n",
      "          (fc2): Conv2d(144, 576, kernel_size=(1, 1), stride=(1, 1))\n",
      "          (activation): ReLU()\n",
      "          (scale_activation): Hardsigmoid()\n",
      "        )\n",
      "        (3): Conv2dNormActivation(\n",
      "          (0): Conv2d(576, 96, kernel_size=(1, 1), stride=(1, 1), bias=False)\n",
      "          (1): BatchNorm2d(96, eps=0.001, momentum=0.01, affine=True, track_running_stats=True)\n",
      "        )\n",
      "      )\n",
      "    )\n",
      "    (11): InvertedResidual(\n",
      "      (block): Sequential(\n",
      "        (0): Conv2dNormActivation(\n",
      "          (0): Conv2d(96, 576, kernel_size=(1, 1), stride=(1, 1), bias=False)\n",
      "          (1): BatchNorm2d(576, eps=0.001, momentum=0.01, affine=True, track_running_stats=True)\n",
      "          (2): Hardswish()\n",
      "        )\n",
      "        (1): Conv2dNormActivation(\n",
      "          (0): Conv2d(576, 576, kernel_size=(5, 5), stride=(1, 1), padding=(2, 2), groups=576, bias=False)\n",
      "          (1): BatchNorm2d(576, eps=0.001, momentum=0.01, affine=True, track_running_stats=True)\n",
      "          (2): Hardswish()\n",
      "        )\n",
      "        (2): SqueezeExcitation(\n",
      "          (avgpool): AdaptiveAvgPool2d(output_size=1)\n",
      "          (fc1): Conv2d(576, 144, kernel_size=(1, 1), stride=(1, 1))\n",
      "          (fc2): Conv2d(144, 576, kernel_size=(1, 1), stride=(1, 1))\n",
      "          (activation): ReLU()\n",
      "          (scale_activation): Hardsigmoid()\n",
      "        )\n",
      "        (3): Conv2dNormActivation(\n",
      "          (0): Conv2d(576, 96, kernel_size=(1, 1), stride=(1, 1), bias=False)\n",
      "          (1): BatchNorm2d(96, eps=0.001, momentum=0.01, affine=True, track_running_stats=True)\n",
      "        )\n",
      "      )\n",
      "    )\n",
      "    (12): Conv2dNormActivation(\n",
      "      (0): Conv2d(96, 576, kernel_size=(1, 1), stride=(1, 1), bias=False)\n",
      "      (1): BatchNorm2d(576, eps=0.001, momentum=0.01, affine=True, track_running_stats=True)\n",
      "      (2): Hardswish()\n",
      "    )\n",
      "  )\n",
      "  (avgpool): AdaptiveAvgPool2d(output_size=1)\n",
      "  (classifier): Sequential(\n",
      "    (0): Linear(in_features=576, out_features=1024, bias=True)\n",
      "    (1): Hardswish()\n",
      "    (2): Dropout(p=0.2, inplace=True)\n",
      "    (3): Linear(in_features=1024, out_features=1000, bias=True)\n",
      "  )\n",
      ")\n"
     ]
    },
    {
     "name": "stderr",
     "output_type": "stream",
     "text": [
      "\n"
     ]
    }
   ],
   "source": [
    "# Load a pre-trained MobileNetV3 and inspect its structure\n",
    "import torchvision.models as models\n",
    "\n",
    "mobilenet_v3_model = models.mobilenet_v3_small(pretrained=True)\n",
    "print(mobilenet_v3_model)"
   ]
  },
  {
   "cell_type": "markdown",
   "metadata": {},
   "source": [
    "Take note of the `classifier` section of the model.\n",
    "\n",
    "```\n",
    "  (classifier): Sequential(\n",
    "    (0): Linear(in_features=576, out_features=1024, bias=True)\n",
    "    (1): Hardswish()\n",
    "    (2): Dropout(p=0.2, inplace=True)\n",
    "    (3): Linear(in_features=1024, out_features=1000, bias=True)\n",
    "  )\n",
    "```\n",
    "\n",
    "There are 1000 output features, but our dataset does not have that many. See if you can complete the next cell so that it has the right number of output nodes."
   ]
  },
  {
   "cell_type": "code",
   "execution_count": 6,
   "metadata": {},
   "outputs": [
    {
     "name": "stdout",
     "output_type": "stream",
     "text": [
      "MobileNetV3(\n",
      "  (model): MobileNetV3(\n",
      "    (features): Sequential(\n",
      "      (0): Conv2dNormActivation(\n",
      "        (0): Conv2d(3, 16, kernel_size=(3, 3), stride=(2, 2), padding=(1, 1), bias=False)\n",
      "        (1): BatchNorm2d(16, eps=0.001, momentum=0.01, affine=True, track_running_stats=True)\n",
      "        (2): Hardswish()\n",
      "      )\n",
      "      (1): InvertedResidual(\n",
      "        (block): Sequential(\n",
      "          (0): Conv2dNormActivation(\n",
      "            (0): Conv2d(16, 16, kernel_size=(3, 3), stride=(2, 2), padding=(1, 1), groups=16, bias=False)\n",
      "            (1): BatchNorm2d(16, eps=0.001, momentum=0.01, affine=True, track_running_stats=True)\n",
      "            (2): ReLU(inplace=True)\n",
      "          )\n",
      "          (1): SqueezeExcitation(\n",
      "            (avgpool): AdaptiveAvgPool2d(output_size=1)\n",
      "            (fc1): Conv2d(16, 8, kernel_size=(1, 1), stride=(1, 1))\n",
      "            (fc2): Conv2d(8, 16, kernel_size=(1, 1), stride=(1, 1))\n",
      "            (activation): ReLU()\n",
      "            (scale_activation): Hardsigmoid()\n",
      "          )\n",
      "          (2): Conv2dNormActivation(\n",
      "            (0): Conv2d(16, 16, kernel_size=(1, 1), stride=(1, 1), bias=False)\n",
      "            (1): BatchNorm2d(16, eps=0.001, momentum=0.01, affine=True, track_running_stats=True)\n",
      "          )\n",
      "        )\n",
      "      )\n",
      "      (2): InvertedResidual(\n",
      "        (block): Sequential(\n",
      "          (0): Conv2dNormActivation(\n",
      "            (0): Conv2d(16, 72, kernel_size=(1, 1), stride=(1, 1), bias=False)\n",
      "            (1): BatchNorm2d(72, eps=0.001, momentum=0.01, affine=True, track_running_stats=True)\n",
      "            (2): ReLU(inplace=True)\n",
      "          )\n",
      "          (1): Conv2dNormActivation(\n",
      "            (0): Conv2d(72, 72, kernel_size=(3, 3), stride=(2, 2), padding=(1, 1), groups=72, bias=False)\n",
      "            (1): BatchNorm2d(72, eps=0.001, momentum=0.01, affine=True, track_running_stats=True)\n",
      "            (2): ReLU(inplace=True)\n",
      "          )\n",
      "          (2): Conv2dNormActivation(\n",
      "            (0): Conv2d(72, 24, kernel_size=(1, 1), stride=(1, 1), bias=False)\n",
      "            (1): BatchNorm2d(24, eps=0.001, momentum=0.01, affine=True, track_running_stats=True)\n",
      "          )\n",
      "        )\n",
      "      )\n",
      "      (3): InvertedResidual(\n",
      "        (block): Sequential(\n",
      "          (0): Conv2dNormActivation(\n",
      "            (0): Conv2d(24, 88, kernel_size=(1, 1), stride=(1, 1), bias=False)\n",
      "            (1): BatchNorm2d(88, eps=0.001, momentum=0.01, affine=True, track_running_stats=True)\n",
      "            (2): ReLU(inplace=True)\n",
      "          )\n",
      "          (1): Conv2dNormActivation(\n",
      "            (0): Conv2d(88, 88, kernel_size=(3, 3), stride=(1, 1), padding=(1, 1), groups=88, bias=False)\n",
      "            (1): BatchNorm2d(88, eps=0.001, momentum=0.01, affine=True, track_running_stats=True)\n",
      "            (2): ReLU(inplace=True)\n",
      "          )\n",
      "          (2): Conv2dNormActivation(\n",
      "            (0): Conv2d(88, 24, kernel_size=(1, 1), stride=(1, 1), bias=False)\n",
      "            (1): BatchNorm2d(24, eps=0.001, momentum=0.01, affine=True, track_running_stats=True)\n",
      "          )\n",
      "        )\n",
      "      )\n",
      "      (4): InvertedResidual(\n",
      "        (block): Sequential(\n",
      "          (0): Conv2dNormActivation(\n",
      "            (0): Conv2d(24, 96, kernel_size=(1, 1), stride=(1, 1), bias=False)\n",
      "            (1): BatchNorm2d(96, eps=0.001, momentum=0.01, affine=True, track_running_stats=True)\n",
      "            (2): Hardswish()\n",
      "          )\n",
      "          (1): Conv2dNormActivation(\n",
      "            (0): Conv2d(96, 96, kernel_size=(5, 5), stride=(2, 2), padding=(2, 2), groups=96, bias=False)\n",
      "            (1): BatchNorm2d(96, eps=0.001, momentum=0.01, affine=True, track_running_stats=True)\n",
      "            (2): Hardswish()\n",
      "          )\n",
      "          (2): SqueezeExcitation(\n",
      "            (avgpool): AdaptiveAvgPool2d(output_size=1)\n",
      "            (fc1): Conv2d(96, 24, kernel_size=(1, 1), stride=(1, 1))\n",
      "            (fc2): Conv2d(24, 96, kernel_size=(1, 1), stride=(1, 1))\n",
      "            (activation): ReLU()\n",
      "            (scale_activation): Hardsigmoid()\n",
      "          )\n",
      "          (3): Conv2dNormActivation(\n",
      "            (0): Conv2d(96, 40, kernel_size=(1, 1), stride=(1, 1), bias=False)\n",
      "            (1): BatchNorm2d(40, eps=0.001, momentum=0.01, affine=True, track_running_stats=True)\n",
      "          )\n",
      "        )\n",
      "      )\n",
      "      (5): InvertedResidual(\n",
      "        (block): Sequential(\n",
      "          (0): Conv2dNormActivation(\n",
      "            (0): Conv2d(40, 240, kernel_size=(1, 1), stride=(1, 1), bias=False)\n",
      "            (1): BatchNorm2d(240, eps=0.001, momentum=0.01, affine=True, track_running_stats=True)\n",
      "            (2): Hardswish()\n",
      "          )\n",
      "          (1): Conv2dNormActivation(\n",
      "            (0): Conv2d(240, 240, kernel_size=(5, 5), stride=(1, 1), padding=(2, 2), groups=240, bias=False)\n",
      "            (1): BatchNorm2d(240, eps=0.001, momentum=0.01, affine=True, track_running_stats=True)\n",
      "            (2): Hardswish()\n",
      "          )\n",
      "          (2): SqueezeExcitation(\n",
      "            (avgpool): AdaptiveAvgPool2d(output_size=1)\n",
      "            (fc1): Conv2d(240, 64, kernel_size=(1, 1), stride=(1, 1))\n",
      "            (fc2): Conv2d(64, 240, kernel_size=(1, 1), stride=(1, 1))\n",
      "            (activation): ReLU()\n",
      "            (scale_activation): Hardsigmoid()\n",
      "          )\n",
      "          (3): Conv2dNormActivation(\n",
      "            (0): Conv2d(240, 40, kernel_size=(1, 1), stride=(1, 1), bias=False)\n",
      "            (1): BatchNorm2d(40, eps=0.001, momentum=0.01, affine=True, track_running_stats=True)\n",
      "          )\n",
      "        )\n",
      "      )\n",
      "      (6): InvertedResidual(\n",
      "        (block): Sequential(\n",
      "          (0): Conv2dNormActivation(\n",
      "            (0): Conv2d(40, 240, kernel_size=(1, 1), stride=(1, 1), bias=False)\n",
      "            (1): BatchNorm2d(240, eps=0.001, momentum=0.01, affine=True, track_running_stats=True)\n",
      "            (2): Hardswish()\n",
      "          )\n",
      "          (1): Conv2dNormActivation(\n",
      "            (0): Conv2d(240, 240, kernel_size=(5, 5), stride=(1, 1), padding=(2, 2), groups=240, bias=False)\n",
      "            (1): BatchNorm2d(240, eps=0.001, momentum=0.01, affine=True, track_running_stats=True)\n",
      "            (2): Hardswish()\n",
      "          )\n",
      "          (2): SqueezeExcitation(\n",
      "            (avgpool): AdaptiveAvgPool2d(output_size=1)\n",
      "            (fc1): Conv2d(240, 64, kernel_size=(1, 1), stride=(1, 1))\n",
      "            (fc2): Conv2d(64, 240, kernel_size=(1, 1), stride=(1, 1))\n",
      "            (activation): ReLU()\n",
      "            (scale_activation): Hardsigmoid()\n",
      "          )\n",
      "          (3): Conv2dNormActivation(\n",
      "            (0): Conv2d(240, 40, kernel_size=(1, 1), stride=(1, 1), bias=False)\n",
      "            (1): BatchNorm2d(40, eps=0.001, momentum=0.01, affine=True, track_running_stats=True)\n",
      "          )\n",
      "        )\n",
      "      )\n",
      "      (7): InvertedResidual(\n",
      "        (block): Sequential(\n",
      "          (0): Conv2dNormActivation(\n",
      "            (0): Conv2d(40, 120, kernel_size=(1, 1), stride=(1, 1), bias=False)\n",
      "            (1): BatchNorm2d(120, eps=0.001, momentum=0.01, affine=True, track_running_stats=True)\n",
      "            (2): Hardswish()\n",
      "          )\n",
      "          (1): Conv2dNormActivation(\n",
      "            (0): Conv2d(120, 120, kernel_size=(5, 5), stride=(1, 1), padding=(2, 2), groups=120, bias=False)\n",
      "            (1): BatchNorm2d(120, eps=0.001, momentum=0.01, affine=True, track_running_stats=True)\n",
      "            (2): Hardswish()\n",
      "          )\n",
      "          (2): SqueezeExcitation(\n",
      "            (avgpool): AdaptiveAvgPool2d(output_size=1)\n",
      "            (fc1): Conv2d(120, 32, kernel_size=(1, 1), stride=(1, 1))\n",
      "            (fc2): Conv2d(32, 120, kernel_size=(1, 1), stride=(1, 1))\n",
      "            (activation): ReLU()\n",
      "            (scale_activation): Hardsigmoid()\n",
      "          )\n",
      "          (3): Conv2dNormActivation(\n",
      "            (0): Conv2d(120, 48, kernel_size=(1, 1), stride=(1, 1), bias=False)\n",
      "            (1): BatchNorm2d(48, eps=0.001, momentum=0.01, affine=True, track_running_stats=True)\n",
      "          )\n",
      "        )\n",
      "      )\n",
      "      (8): InvertedResidual(\n",
      "        (block): Sequential(\n",
      "          (0): Conv2dNormActivation(\n",
      "            (0): Conv2d(48, 144, kernel_size=(1, 1), stride=(1, 1), bias=False)\n",
      "            (1): BatchNorm2d(144, eps=0.001, momentum=0.01, affine=True, track_running_stats=True)\n",
      "            (2): Hardswish()\n",
      "          )\n",
      "          (1): Conv2dNormActivation(\n",
      "            (0): Conv2d(144, 144, kernel_size=(5, 5), stride=(1, 1), padding=(2, 2), groups=144, bias=False)\n",
      "            (1): BatchNorm2d(144, eps=0.001, momentum=0.01, affine=True, track_running_stats=True)\n",
      "            (2): Hardswish()\n",
      "          )\n",
      "          (2): SqueezeExcitation(\n",
      "            (avgpool): AdaptiveAvgPool2d(output_size=1)\n",
      "            (fc1): Conv2d(144, 40, kernel_size=(1, 1), stride=(1, 1))\n",
      "            (fc2): Conv2d(40, 144, kernel_size=(1, 1), stride=(1, 1))\n",
      "            (activation): ReLU()\n",
      "            (scale_activation): Hardsigmoid()\n",
      "          )\n",
      "          (3): Conv2dNormActivation(\n",
      "            (0): Conv2d(144, 48, kernel_size=(1, 1), stride=(1, 1), bias=False)\n",
      "            (1): BatchNorm2d(48, eps=0.001, momentum=0.01, affine=True, track_running_stats=True)\n",
      "          )\n",
      "        )\n",
      "      )\n",
      "      (9): InvertedResidual(\n",
      "        (block): Sequential(\n",
      "          (0): Conv2dNormActivation(\n",
      "            (0): Conv2d(48, 288, kernel_size=(1, 1), stride=(1, 1), bias=False)\n",
      "            (1): BatchNorm2d(288, eps=0.001, momentum=0.01, affine=True, track_running_stats=True)\n",
      "            (2): Hardswish()\n",
      "          )\n",
      "          (1): Conv2dNormActivation(\n",
      "            (0): Conv2d(288, 288, kernel_size=(5, 5), stride=(2, 2), padding=(2, 2), groups=288, bias=False)\n",
      "            (1): BatchNorm2d(288, eps=0.001, momentum=0.01, affine=True, track_running_stats=True)\n",
      "            (2): Hardswish()\n",
      "          )\n",
      "          (2): SqueezeExcitation(\n",
      "            (avgpool): AdaptiveAvgPool2d(output_size=1)\n",
      "            (fc1): Conv2d(288, 72, kernel_size=(1, 1), stride=(1, 1))\n",
      "            (fc2): Conv2d(72, 288, kernel_size=(1, 1), stride=(1, 1))\n",
      "            (activation): ReLU()\n",
      "            (scale_activation): Hardsigmoid()\n",
      "          )\n",
      "          (3): Conv2dNormActivation(\n",
      "            (0): Conv2d(288, 96, kernel_size=(1, 1), stride=(1, 1), bias=False)\n",
      "            (1): BatchNorm2d(96, eps=0.001, momentum=0.01, affine=True, track_running_stats=True)\n",
      "          )\n",
      "        )\n",
      "      )\n",
      "      (10): InvertedResidual(\n",
      "        (block): Sequential(\n",
      "          (0): Conv2dNormActivation(\n",
      "            (0): Conv2d(96, 576, kernel_size=(1, 1), stride=(1, 1), bias=False)\n",
      "            (1): BatchNorm2d(576, eps=0.001, momentum=0.01, affine=True, track_running_stats=True)\n",
      "            (2): Hardswish()\n",
      "          )\n",
      "          (1): Conv2dNormActivation(\n",
      "            (0): Conv2d(576, 576, kernel_size=(5, 5), stride=(1, 1), padding=(2, 2), groups=576, bias=False)\n",
      "            (1): BatchNorm2d(576, eps=0.001, momentum=0.01, affine=True, track_running_stats=True)\n",
      "            (2): Hardswish()\n",
      "          )\n",
      "          (2): SqueezeExcitation(\n",
      "            (avgpool): AdaptiveAvgPool2d(output_size=1)\n",
      "            (fc1): Conv2d(576, 144, kernel_size=(1, 1), stride=(1, 1))\n",
      "            (fc2): Conv2d(144, 576, kernel_size=(1, 1), stride=(1, 1))\n",
      "            (activation): ReLU()\n",
      "            (scale_activation): Hardsigmoid()\n",
      "          )\n",
      "          (3): Conv2dNormActivation(\n",
      "            (0): Conv2d(576, 96, kernel_size=(1, 1), stride=(1, 1), bias=False)\n",
      "            (1): BatchNorm2d(96, eps=0.001, momentum=0.01, affine=True, track_running_stats=True)\n",
      "          )\n",
      "        )\n",
      "      )\n",
      "      (11): InvertedResidual(\n",
      "        (block): Sequential(\n",
      "          (0): Conv2dNormActivation(\n",
      "            (0): Conv2d(96, 576, kernel_size=(1, 1), stride=(1, 1), bias=False)\n",
      "            (1): BatchNorm2d(576, eps=0.001, momentum=0.01, affine=True, track_running_stats=True)\n",
      "            (2): Hardswish()\n",
      "          )\n",
      "          (1): Conv2dNormActivation(\n",
      "            (0): Conv2d(576, 576, kernel_size=(5, 5), stride=(1, 1), padding=(2, 2), groups=576, bias=False)\n",
      "            (1): BatchNorm2d(576, eps=0.001, momentum=0.01, affine=True, track_running_stats=True)\n",
      "            (2): Hardswish()\n",
      "          )\n",
      "          (2): SqueezeExcitation(\n",
      "            (avgpool): AdaptiveAvgPool2d(output_size=1)\n",
      "            (fc1): Conv2d(576, 144, kernel_size=(1, 1), stride=(1, 1))\n",
      "            (fc2): Conv2d(144, 576, kernel_size=(1, 1), stride=(1, 1))\n",
      "            (activation): ReLU()\n",
      "            (scale_activation): Hardsigmoid()\n",
      "          )\n",
      "          (3): Conv2dNormActivation(\n",
      "            (0): Conv2d(576, 96, kernel_size=(1, 1), stride=(1, 1), bias=False)\n",
      "            (1): BatchNorm2d(96, eps=0.001, momentum=0.01, affine=True, track_running_stats=True)\n",
      "          )\n",
      "        )\n",
      "      )\n",
      "      (12): Conv2dNormActivation(\n",
      "        (0): Conv2d(96, 576, kernel_size=(1, 1), stride=(1, 1), bias=False)\n",
      "        (1): BatchNorm2d(576, eps=0.001, momentum=0.01, affine=True, track_running_stats=True)\n",
      "        (2): Hardswish()\n",
      "      )\n",
      "    )\n",
      "    (avgpool): AdaptiveAvgPool2d(output_size=1)\n",
      "    (classifier): Sequential(\n",
      "      (0): Linear(in_features=576, out_features=1024, bias=True)\n",
      "      (1): Hardswish()\n",
      "      (2): Dropout(p=0.2, inplace=True)\n",
      "      (3): Linear(in_features=1024, out_features=10, bias=True)\n",
      "    )\n",
      "  )\n",
      ")\n"
     ]
    }
   ],
   "source": [
    "# Replace <MASK> to complete this code cell\n",
    "\n",
    "import torch.nn.functional as F\n",
    "import torchvision.models as models\n",
    "from torch import nn\n",
    "\n",
    "\n",
    "# Define a model class that extends the nn.Module class\n",
    "class MobileNetV3(nn.Module):\n",
…
